…
l='Conv64F', beta1=0.5, clamp_lower=-0.01, clamp_upper=0.01, cosine=False, cuda=True, data_name='tieredImageNet', dataset_dir='/home/liwenbin/Datasets/tiered_imagenet', episodeSize=2, episode_test_num=1000, episode_train_num=10000, episode_val_num=3000, epochs=50, imageSize=84, lr=0.001, method_name='ADM', mode='train', nc=3, neighbor_k=1, ngpu=1, outf='./results/tieredImageNet_FixBN_Final/ADM_BatchSize_2_Conv64F_tieredImageNet_5Way_5Shot', print_freq=50, query_num=15, resume='', shot_num=5, start_epoch=0, testepisodeSize=2, way_num=5, workers=8)
FourLayer_64F(
  (features): Sequential(
    (0): Conv2d(3, 64, kernel_size=(3, 3), stride=(1, 1), padding=(1, 1), bias=False)
    (1): BatchNorm2d(64, eps=1e-05, momentum=0.1, affine=True, track_running_stats=True)
    (2): LeakyReLU(negative_slope=0.2, inplace=True)
    (3): MaxPool2d(kernel_size=2, stride=2, padding=0, dilation=1, ceil_mode=False)
    (4): Conv2d(64, 64, kernel_size=(3, 3), stride=(1, 1), padding=(1, 1), bias=False)
    (5): BatchNorm2d(64, eps=1e-05, momentum=0.1, affine=True, track_running_stats=True)
    (6): LeakyReLU(negative_slope=0.2, inplace=True)
    (7): MaxPool2d(kernel_size=2, stride=2, padding=0, dilation=1, ceil_mode=False)
    (8): Conv2d(64, 64, kernel_size=(3, 3), stride=(1, 1), padding=(1, 1), bias=False)
    (9): BatchNorm2d(64, eps=1e-05, momentum=0.1, affine=True, track_running_stats=True)
    (10): LeakyReLU(negative_slope=0.2, inplace=True)
    (11): Conv2d(64, 64, kernel_size=(3, 3), stride=(1, 1), padding=(1, 1), bias=False)
    (12): BatchNorm2d(64, eps=1e-05, momentum=0.1, affine=True, track_running_stats=True)
    (13): LeakyReLU(negative_slope=0.2, inplace=True)
  )
  (classifier): ADM_Metric(
    (Norm_layer): BatchNorm1d(10, eps=1e-05, momentum=0.1, affine=True, track_running_stats=True)
    (FC_layer): Conv1d(1, 1, kernel_size=(2,), stride=(1,), dilation=(5,), bias=False)
  )
)
===================================== Training on the train set =====================================
Learning rate: 0.001000
==================== Epoch 0 ====================
Eposide-(0): [50/5000]	Time 0.315 (0.340)	Data 0.015 (0.035)	Loss 1.555 (1.583)	Prec@1 50.667 (41.046)
Eposide-(0): [100/5000]	Time 0.297 (0.319)	Data 0.019 (0.027)	Loss 1.481 (1.557)	Prec@1 50.667 (42.535)
…
