…
Namespace(adam=True, augment=True, basemodel='Conv64F', beta1=0.5, clamp_lower=-0.01, clamp_upper=0.01, cosine=False, cuda=True, current_epoch=49, data_name='miniImageNet', dataset_dir='/home/liwenbin/Datasets/miniImageNet--ravi', episodeSize=2, episode_test_num=1000, episode_train_num=10000, episode_val_num=3000, epochs=50, imageSize=84, lr=0.001, method_name='ADM', mode='train', nc=3, neighbor_k=1, ngpu=1, outf='./results/miniImageNet_FixBN_Final/ADM_BatchSize_2_Conv64F_miniImageNet_5Way_5Shot', print_freq=50, query_num=15, resume='', shot_num=5, start_epoch=0, testepisodeSize=2, way_num=5, workers=8)
FourLayer_64F(
  (features): Sequential(
    (0): Conv2d(3, 64, kernel_size=(3, 3), stride=(1, 1), padding=(1, 1), bias=False)
    (1): BatchNorm2d(64, eps=1e-05, momentum=0.1, affine=True, track_running_stats=True)
    (2): LeakyReLU(negative_slope=0.2, inplace=True)
    (3): MaxPool2d(kernel_size=2, stride=2, padding=0, dilation=1, ceil_mode=False)
    (4): Conv2d(64, 64, kernel_size=(3, 3), stride=(1, 1), padding=(1, 1), bias=False)
    (5): BatchNorm2d(64, eps=1e-05, momentum=0.1, affine=True, track_running_stats=True)
    (6): LeakyReLU(negative_slope=0.2, inplace=True)
    (7): MaxPool2d(kernel_size=2, stride=2, padding=0, dilation=1, ceil_mode=False)
    (8): Conv2d(64, 64, kernel_size=(3, 3), stride=(1, 1), padding=(1, 1), bias=False)
    (9): BatchNorm2d(64, eps=1e-05, momentum=0.1, affine=True, track_running_stats=True)
    (10): LeakyReLU(negative_slope=0.2, inplace=True)
    (11): Conv2d(64, 64, kernel_size=(3, 3), stride=(1, 1), padding=(1, 1), bias=False)
    (12): BatchNorm2d(64, eps=1e-05, momentum=0.1, affine=True, track_running_stats=True)
    (13): LeakyReLU(negative_slope=0.2, inplace=True)
  )
  (classifier): ADM_Metric(
    (Norm_layer): BatchNorm1d(10, eps=1e-05, momentum=0.1, affine=True, track_running_stats=True)
    (FC_layer): Conv1d(1, 1, kernel_size=(2,), stride=(1,), dilation=(5,), bias=False)
  )
)
==================== The 0-th round ====================
Test-(48): [50/500]	Time 0.154 (0.177)	Loss 0.629 (0.706)	Prec@1 74.667 (73.503)
Test-(48): [100/500]	Time 0.157 (0.168)	Loss 0.869 (0.704)	Prec@1 68.000 (73.670)
Test-(48): [150/500]	Time 0.163 (0.165)	Loss 0.726 (0.713)	Prec@1 80.000 (73.342)
Test-(48): [200/500]	Time 0.157 (0.163)	Loss 1.007 (0.713)	Prec@1 68.000 (73.363)
…
